…
          "base_uri": "https://localhost:8080/"
        },
        "outputId": "4bcb2b98-a1e9-46e9-8373-ed5137d9b39f"
      },
      "source": [
        "model.summary()"
      ],
      "execution_count": 9,
      "outputs": [
        {
          "output_type": "stream",
          "text": [
            "Model: \"sequential\"\n",
            "_________________________________________________________________\n",
            "Layer (type)                 Output Shape              Param #   \n",
            "=================================================================\n",
            "layer (Layer)                (None, 256, 256, 3)       0         \n",
            "_________________________________________________________________\n",
            "conv2d (Conv2D)              (None, 256, 256, 8)       224       \n",
            "_________________________________________________________________\n",
            "batch_normalization (BatchNo (None, 256, 256, 8)       32        \n",
            "_________________________________________________________________\n",
            "activation (Activation)      (None, 256, 256, 8)       0         \n",
            "_________________________________________________________________\n",
            "conv2d_1 (Conv2D)            (None, 256, 256, 8)       584       \n",
            "_________________________________________________________________\n",
            "batch_normalization_1 (Batch (None, 256, 256, 8)       32        \n",
            "_________________________________________________________________\n",
            "activation_1 (Activation)    (None, 256, 256, 8)       0         \n",
            "_________________________________________________________________\n",
            "max_pooling2d (MaxPooling2D) (None, 128, 128, 8)       0         \n",
            "_________________________________________________________________\n",
            "conv2d_2 (Conv2D)            (None, 128, 128, 16)      1168      \n",
            "_________________________________________________________________\n",
            "batch_normalization_2 (Batch (None, 128, 128, 16)      64        \n",
            "_________________________________________________________________\n",
            "activation_2 (Activation)    (None, 128, 128, 16)      0         \n",
            "_________________________________________________________________\n",
            "conv2d_3 (Conv2D)            (None, 128, 128, 16)      2320      \n",
            "_________________________________________________________________\n",
            "batch_normalization_3 (Batch (None, 128, 128, 16)      64        \n",
            "_________________________________________________________________\n",
            "activation_3 (Activation)    (None, 128, 128, 16)      0         \n",
            "_________________________________________________________________\n",
            "max_pooling2d_1 (MaxPooling2 (None, 64, 64, 16)        0         \n",
            "_________________________________________________________________\n",
            "conv2d_4 (Conv2D)            (None, 64, 64, 32)        4640      \n",
            "_________________________________________________________________\n",
            "batch_normalization_4 (Batch (None, 64, 64, 32)        128       \n",
            "_________________________________________________________________\n",
            "activation_4 (Activation)    (None, 64, 64, 32)        0         \n",
            "_________________________________________________________________\n",
            "conv2d_5 (Conv2D)            (None, 64, 64, 32)        9248      \n",
            "_________________________________________________________________\n",
            "batch_normalization_5 (Batch (None, 64, 64, 32)        128       \n",
            "_________________________________________________________________\n",
            "activation_5 (Activation)    (None, 64, 64, 32)        0         \n",
            "_________________________________________________________________\n",
            "conv2d_6 (Conv2D)            (None, 64, 64, 32)        9248      \n",
            "_________________________________________________________________\n",
            "batch_normalization_6 (Batch (None, 64, 64, 32)        128       \n",
            "_________________________________________________________________\n",
            "activation_6 (Activation)    (None, 64, 64, 32)        0         \n",
            "_________________________________________________________________\n",
            "max_pooling2d_2 (MaxPooling2 (None, 32, 32, 32)        0         \n",
            "_________________________________________________________________\n",
            "conv2d_7 (Conv2D)            (None, 32, 32, 64)        18496     \n",
            "_________________________________________________________________\n",
            "batch_normalization_7 (Batch (None, 32, 32, 64)        256       \n",
            "_________________________________________________________________\n",
            "activation_7 (Activation)    (None, 32, 32, 64)        0         \n",
            "_________________________________________________________________\n",
            "conv2d_8 (Conv2D)            (None, 32, 32, 64)        36928     \n",
            "_________________________________________________________________\n",
            "batch_normalization_8 (Batch (None, 32, 32, 64)        256       \n",
            "_________________________________________________________________\n",
            "activation_8 (Activation)    (None, 32, 32, 64)        0         \n",
            "_________________________________________________________________\n",
            "conv2d_9 (Conv2D)            (None, 32, 32, 64)        36928     \n",
            "_________________________________________________________________\n",
            "batch_normalization_9 (Batch (None, 32, 32, 64)        256       \n",
            "_________________________________________________________________\n",
            "activation_9 (Activation)    (None, 32, 32, 64)        0         \n",
            "_________________________________________________________________\n",
            "max_pooling2d_3 (MaxPooling2 (None, 16, 16, 64)        0         \n",
            "_________________________________________________________________\n",
            "up_sampling2d (UpSampling2D) (None, 32, 32, 64)        0         \n",
            "_________________________________________________________________\n",
            "conv2d_10 (Conv2D)           (None, 32, 32, 64)        36928     \n",
            "_________________________________________________________________\n",
            "batch_normalization_10 (Batc (None, 32, 32, 64)        256       \n",
            "_________________________________________________________________\n",
            "conv2d_11 (Conv2D)           (None, 32, 32, 64)        36928     \n",
            "_________________________________________________________________\n",
            "batch_normalization_11 (Batc (None, 32, 32, 64)        256       \n",
            "_________________________________________________________________\n",
            "conv2d_12 (Conv2D)           (None, 32, 32, 64)        36928     \n",
            "_________________________________________________________________\n",
            "batch_normalization_12 (Batc (None, 32, 32, 64)        256       \n",
            "_________________________________________________________________\n",
            "up_sampling2d_1 (UpSampling2 (None, 64, 64, 64)        0         \n",
            "_________________________________________________________________\n",
            "conv2d_13 (Conv2D)           (None, 64, 64, 32)        18464     \n",
            "_________________________________________________________________\n",
            "batch_normalization_13 (Batc (None, 64, 64, 32)        128       \n",
            "_________________________________________________________________\n",
            "conv2d_14 (Conv2D)           (None, 64, 64, 32)        9248      \n",
            "_________________________________________________________________\n",
            "batch_normalization_14 (Batc (None, 64, 64, 32)        128       \n",
            "_________________________________________________________________\n",
            "conv2d_15 (Conv2D)           (None, 64, 64, 32)        9248      \n",
            "_________________________________________________________________\n",
            "batch_normalization_15 (Batc (None, 64, 64, 32)        128       \n",
            "_________________________________________________________________\n",
            "up_sampling2d_2 (UpSampling2 (None, 128, 128, 32)      0         \n",
            "_________________________________________________________________\n",
            "conv2d_16 (Conv2D)           (None, 128, 128, 16)      4624      \n",
            "_________________________________________________________________\n",
            "batch_normalization_16 (Batc (None, 128, 128, 16)      64        \n",
            "_________________________________________________________________\n",
            "conv2d_17 (Conv2D)           (None, 128, 128, 16)      2320      \n",
            "_________________________________________________________________\n",
            "batch_normalization_17 (Batc (None, 128, 128, 16)      64        \n",
            "_________________________________________________________________\n",
            "up_sampling2d_3 (UpSampling2 (None, 256, 256, 16)      0         \n",
            "_________________________________________________________________\n",
            "conv2d_18 (Conv2D)           (None, 256, 256, 8)       1160      \n",
            "_________________________________________________________________\n",
            "batch_normalization_18 (Batc (None, 256, 256, 8)       32        \n",
            "_________________________________________________________________\n",
            "conv2d_19 (Conv2D)           (None, 256, 256, 8)       584       \n",
            "_________________________________________________________________\n",
            "batch_normalization_19 (Batc (None, 256, 256, 8)       32        \n",
            "_________________________________________________________________\n",
            "conv2d_20 (Conv2D)           (None, 256, 256, 3)       27        \n",
            "_________________________________________________________________\n",
            "activation_10 (Activation)   (None, 256, 256, 3)       0         \n",
            "=================================================================\n",
            "Total params: 278,931\n",
            "Trainable params: 277,587\n",
            "Non-trainable params: 1,344\n",
            "_________________________________________________________________\n"
          ],
          "name": "stdout"
        }
      ]
    },
    {
      "cell_type": "code",
…
